…
2025-05-23 13:44:19,939:Level 1 : Registering BatchMatMulV2,flops (<function _calc_batch_mat_mul_flops at 0x000001A1AF965B20>) in statistical functions.
2025-05-23 13:44:19,939:Level 1 : Registering BatchMatMul,flops (<function _calc_batch_mat_mul_flops at 0x000001A1AF965B20>) in statistical functions.
2025-05-23 13:44:21,121:Level 1 : Enabling eager execution
2025-05-23 13:44:21,121:Level 1 : Enabling v2 tensorshape
2025-05-23 13:44:21,121:Level 1 : Enabling resource variables
2025-05-23 13:44:21,121:Level 1 : Enabling tensor equality
2025-05-23 13:44:21,121:Level 1 : Enabling control flow v2
2025-05-24 14:05:38,416:INFO : ConvNet(
  (activation): ReLU()
  (model): Sequential(
    (0): Conv2d(3, 128, kernel_size=(3, 3), stride=(1, 1), padding=(1, 1))
    (1): BatchNorm2d(128, eps=1e-05, momentum=0.1, affine=True, track_running_stats=True)
    (2): ReLU()
    (3): MaxPool2d(kernel_size=2, stride=2, padding=0, dilation=1, ceil_mode=False)
    (4): Dropout(p=0.4, inplace=False)
    (5): Conv2d(128, 512, kernel_size=(3, 3), stride=(1, 1), padding=(1, 1))
    (6): BatchNorm2d(512, eps=1e-05, momentum=0.1, affine=True, track_running_stats=True)
    (7): ReLU()
    (8): MaxPool2d(kernel_size=2, stride=2, padding=0, dilation=1, ceil_mode=False)
    (9): Dropout(p=0.4, inplace=False)
    (10): Conv2d(512, 512, kernel_size=(3, 3), stride=(1, 1), padding=(1, 1))
    (11): BatchNorm2d(512, eps=1e-05, momentum=0.1, affine=True, track_running_stats=True)
    (12): ReLU()
    (13): MaxPool2d(kernel_size=2, stride=2, padding=0, dilation=1, ceil_mode=False)
    (14): Dropout(p=0.4, inplace=False)
    (15): Conv2d(512, 512, kernel_size=(3, 3), stride=(1, 1), padding=(1, 1))
    (16): BatchNorm2d(512, eps=1e-05, momentum=0.1, affine=True, track_running_stats=True)
    (17): ReLU()
    (18): MaxPool2d(kernel_size=2, stride=2, padding=0, dilation=1, ceil_mode=False)
    (19): Dropout(p=0.4, inplace=False)
    (20): Conv2d(512, 512, kernel_size=(3, 3), stride=(1, 1), padding=(1, 1))
    (21): BatchNorm2d(512, eps=1e-05, momentum=0.1, affine=True, track_running_stats=True)
    (22): ReLU()
    (23): MaxPool2d(kernel_size=2, stride=2, padding=0, dilation=1, ceil_mode=False)
    (24): Dropout(p=0.4, inplace=False)
    (25): Conv2d(512, 512, kernel_size=(3, 3), stride=(1, 1), padding=(1, 1))
    (26): BatchNorm2d(512, eps=1e-05, momentum=0.1, affine=True, track_running_stats=True)
    (27): ReLU()
    (28): MaxPool2d(kernel_size=2, stride=2, padding=0, dilation=1, ceil_mode=False)
    (29): Dropout(p=0.4, inplace=False)
    (30): Flatten(start_dim=1, end_dim=-1)
    (31): Linear(in_features=512, out_features=10, bias=True)
  )
)
Layer: model.0, Type: Conv2d, Trainable Parameters: 3,584
Layer: model.1, Type: BatchNorm2d, Trainable Parameters: 256
Layer: model.5, Type: Conv2d, Trainable Parameters: 590,336
Layer: model.6, Type: BatchNorm2d, Trainable Parameters: 1,024
Layer: model.10, Type: Conv2d, Trainable Parameters: 2,359,808
Layer: model.11, Type: BatchNorm2d, Trainable Parameters: 1,024
…
